deep-q-learning/p1_navigation/checkpoint.pth (torch_old, 8193 bytes, 10 tensors)

fc1.weight f4 [32, 37]
00000000: 3444 1dbc 77ec 2a3b c21c 6cbc 47f3 31bd
00000010: e925 8f3d d43e 083c 163c 0f3d 3380 883d
00000020: b1bc 233e 6c49 523e 960c f0bd 867d e0bc
00000030: 0d35 91bd ed44 4ebd c1fc bd3c 00e9 a23e
00000040: 0de7 613e 0101 41bd ac78 83be 2797 b3bf
00000050: 9e65 943d c49c c33d 5f4b fb3d 0045 5d3d
00000060: b1d9 e239 9a77 c9bd f933 e93c c238 cc3c
00000070: 3226 e33d 56d0 723e 4e4b a0bd ff76 ed3c
00000080: 7e3b 81bb 77fb a83d 5a8c 163e 381b 06bd
00000090: 8fb7 93bb 408a 9f3d 2e7a 533d 0b4e 273e
000000a0: 1a3b bc3d b2a2 aebe 0734 c1bd 7cf8 9e3d
000000b0: bd09 9b3d 708b 06bf 5a0f 96bf ed5f bebd
000000c0: 0fb1 4cbb f060 bc3c 1df3 543e ea7a 0f3d
000000d0: 043a dd3d fa93 9cbc 408b bf3d 546d f4bc
000000e0: 3b92 7bbe c74a 853c 3ab1 39be 4daa aebc
000000f0: 76dd 88bd b979 d63e 1d3f 9dbc c0de a83d
00000100: db35 cb3d 8809 25be 8132 bebe cb3f 6a3d
00000110: 7970 293d 63eb eb3d 0f01 133e 250f b7bd
00000120: 76bb cfbc f715 a73c e9bb 373e b5c8 803d
00000130: 86fc 3a3d 3fcc c7bc e91e f13d 632b 1cbf
00000140: 8166 f63d 9abc 973d a5f0 ed3e cb83 053f
00000150: 82dc dfbd 320a ea3c ebf6 5d3d 3110 e9bc
00000160: 2a6c d73d bea3 84be 9515 473b f3ec 553e
00000170: 0572 923e f8d2 ea3e deeb e4bd 2639 943c
00000180: 401a 88bd 4d81 933c f6e9 e13c 690e bf3d
00000190: 1c5f a93d 5fb0 a93d 284e 17be f097 c1bd
000001a0: 1eff 86be 8e3b 9abd 6702 50bd e3f3 8ebd
000001b0: 6179 8d3d 5a68 1dbd e427 1ebd 5d81 e7bc
000001c0: db2c c13d f5e9 a33d fdb5 b33d 2735 053d
000001d0: 1f80 f23c 2f26 f1bb fe28 85bd e94f 3f3e
000001e0: 8f7a 993d 44de 87be 2442 4d3d c8b0 c13d
000001f0: ecd2 bf3d 26bf 133f 35e4 a4be bf47 1f3e
00000200: 14e1 04be 519d be3c 68d2 243e 48e3 ae3d
00000210: 07d4 dcbd 55b1 1c3d 74f6 013e 0082 bfbd
00000220: 9f5b ce3c 5bae ed3b 1d2c 6b3d eb2f 9a3d
00000230: 60cf 7b3e 1cea a53e f42f f23c e0f4 64bd
00000240: 2153 42be 53b5 47bf 707d 03bc f447 ed3c
00000250: 48a2 c9bd 0f5b adbd 4451 2bbe 9d17 09be
00000260: bac3 56bd 3603 323e 83c1 0e3e 9e3f 68bd
00000270: 2bf7 01be 3680 dbbf 5f93 21bd fa0e 3bbc
00000280: 2779 27bd 9867 67bd 5e3a f23c 1702 afbc
00000290: 7faa 91bd 1f7c 9bbd fe68 f5bc d06e c33d
000002a0: 15a7 7fbd c9a5 3dbd c280 9cba 8111 c93d
000002b0: 65e0 cf3c 52b2 0cbd 1c63 c4bb 2d0f 1c3d
000002c0: 9eab 5a3e 1f93 e93d 28ae 12bd a1bb 9bbc
000002d0: 84c2 c93c 5db1 c73d e873 1f3d cefb 75bd
000002e0: 0aeb d9ba e152 9fbe 48bc 463e 8874 e33c
000002f0: 20b2 1dbd 99c4 003f 24f1 403e 4eba d2bd
00000300: 113a 38bd 5bdb 0a3e 2d17 843d 3510 d0bc
00000310: 02bc 54be bba9 013d 5034 7fbb 7f72 2b3d
00000320: 1c64 203d f640 05be 54e8 013e 2d53 e2bd
00000330: 7ba4 d6bc f183 143d c7f0 023e 21e7 d23d
00000340: f4fa 853d 7e12 103e 4440 153e 3420 c3bd
00000350: f4b1 b1bd 6f2d 73bd 6c48 2abe 686a c93e
00000360: b460 08be 7f7d a2be b03e 05be 085f 39bf
00000370: 76bd edbd 8459 0b3d 8667 babc d525 efbc
00000380: 1984 313d 92a5 803c aa8b 50bb 761c b3be
00000390: 077d f23c 1c95 453e e78a 4e3e e105 1c3f
000003a0: ca5c 1f3e de7c 743b 8f4b 073d 6577 803d
000003b0: 422a 68bd 1dc6 263e ecf7 c4bd e8d3 5bbd
000003c0: eac3 cbbd b469 22be 13bf 463d b306 6dbb
000003d0: 8727 a0bd 96cf d8bd 985f 18bc 1c26 9037
000003e0: c014 4cbd 28b8 82bd 4e5b ebbc 8f94 46be
000003f0: d061 e33e 8803 d9bd dc9c 6abe ecb6 c0be
-0.00959878 0.0026080885 -0.014411153 -0.043444898 0.06989653 0.008315761 0.03496941 0.06665077
0.15989949 0.2053582 -0.117211506 -0.027403604 -0.07090197 -0.0503587 0.023191812 0.3181839
0.22060795 -0.047120098 -0.25678003 -1.4030503 0.072459444 0.09551385 0.12270235 0.05402088
0.00043268272 -0.09837265 0.028467165 0.024929408 0.110912696 0.23712286 -0.07826863 0.028987406
-0.0039438596 0.08251088 0.14701977 -0.0327408 -0.004507966 0.07790041 0.05163019 0.16338365
0.0919096 -0.34108502 -0.094337516 0.077622384 0.07570217 -0.52556515 -1.1723435 -0.0929564
-0.0031233465 0.022995442 0.20795865 0.03502933 0.10802081 -0.01911353 0.09352732 -0.029837288
-0.24567501 0.016271008 -0.18134013 -0.02132144 -0.06682865 0.41889742 -0.019195134 0.08245611
0.099223815 -0.16116917 -0.37147906 0.057189744 0.041367028 0.11519506 0.14355873 -0.089384355
-0.025357943 0.020396216 0.17942776 0.06288282 0.04565098 -0.024389384 0.11773474 -0.610037
0.1203127 0.0740902 0.4647266 0.52154225 -0.109307304 0.028569315 0.054190557 -0.028450103
0.105186775 -0.25906175 0.0030377854 0.2089117 0.28602615 0.4586408 -0.111778006 0.018093657
-0.06645632 0.018005991 0.027577382 0.093289204 0.08270094 0.08285593 -0.14775908 -0.09452808
-0.26366514 -0.075308904 -0.05078354 -0.069801114 0.06907917 -0.038429596 -0.03861226 -0.028259927
0.094323836 0.08003608 0.08774946 0.032521393 0.029602109 -0.007359288 -0.06501959 0.18682827
0.07494079 -0.26536763 0.050111905 0.094575465 0.09366402 0.57713544 -0.32205358 0.15554713
-0.12976485 0.023268374 0.16095889 0.08539444 -0.107826285 0.038255055 0.1269167 -0.093509674
0.025190173 0.007253451 0.057415117 0.07528671 0.24590826 0.32405174 0.029563881 -0.055897593
-0.18977024 -0.78011054 -0.008025512 0.028964974 -0.09845406 -0.08464634 -0.16730219 -0.13387914
-0.052432753 0.17384037 0.13941006 -0.056701295 -0.12691943 -1.7148502 -0.039447185 -0.011417145
-0.040887024 -0.05649528 0.029568847 -0.021363301 -0.07112598 -0.075920336 -0.02995729 0.0954262
-0.0624152 -0.046300683 -0.0011940228 0.09817792 0.025375554 -0.034349747 -0.00599326 0.03810041
0.2135453 0.11405014 -0.03581062 -0.019010367 0.024628885 0.09750626 0.038928896 -0.060054593
-0.0016625833 -0.3111792 0.19407761 0.027765527 -0.03849995 0.50299984 0.18841988 -0.10289441
-0.04497725 0.1356024 0.06449733 -0.025398353 -0.20774844 0.03165601 -0.0038941093 0.04185724
0.03915797 -0.13013062 0.12686282 -0.11051021 -0.026201477 0.03625864 0.12787162 0.102979906
0.06542006 0.14069554 0.14575297 -0.09527627 -0.0867652 -0.0593695 -0.16629189 0.39338994
-0.1331814 -0.3173637 -0.13012195 -0.7241063 -0.116084024 0.034020916 -0.022754442 -0.029192844
0.04333887 0.01570395 -0.0031821528 -0.3498265 0.029600633 0.19295162 0.20170175 0.6094647
0.1556274 0.0037305872 0.033031043 0.06272773 -0.056680925 0.16286512 -0.096176 -0.053668886
-0.09949477 -0.15860635 0.048522066 -0.0036167323 -0.07820039 -0.10586469 -0.009300135 1.7183884e-05
-0.049824476 -0.06382781 -0.02873006 -0.19392608 0.44410563 -0.10596377 -0.229114 -0.37639558

fc1.bias f4 [32]
00000000: eec0 8fbd 988c 16be 6d6c 2f3d 5bfa 933e
00000010: 1368 2f3e 14ad 9abe f3af c13d f53f aa3e
00000020: feec 3b3c d4d9 a93e ebce 943d d1ec bdbc
00000030: 58dc 683d 94f7 91be 2e17 283e 6b47 f8bc
00000040: 3822 2f3e 8843 e2bb 3e1b 5f3e 7b78 4cbe
00000050: 7a65 65be 565e e3bd d934 eb3d 0af0 7a3e
00000060: da85 783e 7186 c4bd 1d4c 183d 8240 babd
00000070: b3da 663e 8e01 11be d5b8 033d dccf 3bbe
-0.0701922 -0.1470207 0.042828012 0.28901944 0.17129545 -0.30210173 0.09457388 0.3325192
0.011470078 0.33174002 0.07266029 -0.023184212 0.05685076 -0.285092 0.16415092 -0.030307492
0.17102897 -0.006905023 0.21787736 -0.19967835 -0.22401991 -0.111019775 0.11484689 0.2450563
0.2426981 -0.09595955 0.037181962 -0.09094335 0.22544365 -0.1416075 0.03215869 -0.18341011

bn1.weight f4 [32]
00000000: 4b22 743f b4d3 643f 7ea1 793f 6940 343f
00000010: 04e9 753f a75b 113f 0e26 2f3f 187e 223e
00000020: 1e65 0b3f 811a 4f3f 09cc a33f 59ab 5f3f
00000030: 4c22 273f 8742 893f 85c8 723f c522 0f3f
00000040: bbbd 433f b154 e93e 3e76 6a3f 3c3e 263f
00000050: f25d 333f f41a c23e fde0 463f 9ac9 6b3f
00000060: b3a5 e13e 3d34 983f b3b5 593f 3e2c aa3f
00000070: 0173 323f e484 9c3f 590c 713f c5ce c93e
0.95364827 0.89385533 0.9751204 0.7041078 0.9605868 0.56780475 0.6841744 0.15868413
0.5445117 0.80899817 1.2796642 0.8737083 0.6528671 1.0723428 0.9483722 0.5591243
0.7646138 0.45572427 0.91586673 0.6493871 0.70065224 0.3791119 0.77687055 0.92104495
0.4407173 1.1890942 0.85042876 1.3294752 0.6970673 1.2228055 0.94159466 0.39415565

bn1.bias f4 [32]
00000000: 2476 67bf 19f2 dbbd c42a aebd ae89 9c3e
00000010: 5439 663e 9c98 0c3f 891e 493f ab1f 6c3f
00000020: a8e7 133f 6beb b73d a1eb b83d 4867 983e
00000030: 6345 02bf 2807 f0be 3184 4cbe 578d 28bf
00000040: 7612 f8be 2163 6b3f ac11 38bf 47eb 873e
00000050: f73e 0e3f e5d3 f93e e427 a73e f26a a73d
00000060: bddd b13e 31ab 533e 6282 31bf cf03 4abe
00000070: 7cf1 3abf 8471 2dbe 67f9 673d a118 613f
-0.90414643 -0.10739536 -0.08504251 0.3057379 0.22482806 0.54920363 0.7856222 0.9223582
0.57775354 0.08980449 0.09029318 0.29766297 -0.50887126 -0.4688046 -0.19972302 -0.6584067
-0.48451585 0.91948134 -0.71901965 0.2654669 0.55564827 0.48794475 0.32647622 0.08174695
0.34739485 0.20670773 -0.69339573 -0.19728015 -0.73024726 -0.16937834 0.056634333 0.87928206

bn1.running_mean f4 [32]
00000000: 1b76 75be 48f8 c1be b964 40be 1114 483f
00000010: 1366 bdbe 60ee 033e d9ac 80bc 6e45 b03f
00000020: 5ee8 273f 39e4 193f 300c fa3e 94b9 aabd
00000030: 0837 29bf dfb1 2ebe c8be 103e adaa afbe
00000040: e23c 003f 3b1b 1dbf 7b1e 3e3f e6d2 c7be
00000050: eeef e03d 2be7 ffbc e376 433e d6df 7e3e
00000060: 09d8 933f 03f3 e3be 8c31 c8be 95c0 acbe
00000070: 76a8 a6bd 7418 68be f858 55bf 0b00 cbbf
-0.23970835 -0.37884736 -0.18788423 0.7815562 -0.3699194 0.12883902 -0.01570742 1.3771188
0.6558894 0.60113865 0.48837423 -0.083361775 -0.66099596 -0.1706004 0.14135277 -0.34309903
0.500929 -0.61369675 0.7426526 -0.3902809 0.10983263 -0.03123816 0.1908832 0.24890074
1.1550304 -0.4452134 -0.391003 -0.33740678 -0.081376 -0.22665578 -0.8333888 -1.5859388

bn1.running_var f4 [32]
00000000: 7b76 143e e68d 2f3e 906c d93e 8c76 243e
00000010: a2a3 643e 06e5 b53e 2b10 4f3e 7452 183f
00000020: 97d9 5e3e ab7d 163e bb92 a73e 9f40 a03e
00000030: 44cc 333f 779e 213e 5dd5 1b3e 6c96 383e
00000040: f34d 3e3f 415a 753e d989 703e 3abe 863e
00000050: 1cfd c23e 7738 9b3e 4d79 373e 07b9 2c3e
00000060: a312 aa3e fba1 ad3e ed8e 993e 4fbd 203e
00000070: 231e 8b3e d970 043e fcb0 6a3e 25f1 653f
0.14498322 0.17143974 0.4246564 0.16060847 0.22328046 0.35526294 0.20221011 0.59500813
0.21762691 0.14696376 0.32729134 0.31299302 0.7023356 0.15783106 0.1521811 0.18026131
0.7433769 0.2396021 0.23490085 0.26317006 0.38083732 0.30316517 0.17917366 0.16867457
0.33217344 0.33912644 0.29991856 0.15697215 0.2717143 0.12933673 0.22919077 0.8982108

fc2.weight f4 [8, 32]
00000000: 6a13 ccbe 09ed 683d 7977 60be 7d89 82bd
00000010: b0ac 983e 7902 84bd a5b5 c93d 5a70 803d
00000020: c277 a3bd 8a06 173e a5d0 b4be cce2 6f3e
00000030: aca9 233e 6a9a d9be ea47 10be 261c cf3d
00000040: d7c5 58be 63ae e53d 6575 69bc 91f5 e4bd
00000050: 8be0 2c3d fa6e 56bb 748f 373e 0ff1 ffbd
00000060: df9b 83bd 1c3a 76bd 1b9b 2f3e 1247 40be
00000070: 1e89 04bd e20d c5be bb25 0abf 2346 20be
00000080: 0ede e83d 74a8 78bc 9fde 513e f36b 363d
00000090: 9592 f23d 45ba c2bc c52c 803e 6bf7 2d3e
000000a0: ce22 2abd ca72 a0bd e4c2 febd b2c8 3a3e
000000b0: 4ab4 a43d 6199 743e 4a40 83bd 2d15 a43c
000000c0: 9ae1 813c c7c4 113e db48 273d e38a 303e
000000d0: e3ca 193e b301 263e fb15 b2bc 5b2f 023e
000000e0: a14a 1abb b979 083d f5c8 f73d e54b 25be
000000f0: 8031 bf3c d4d1 053e 01f2 263d 31bf e33e
00000100: 150f 0e3e 8f16 aabc a38e 033e 7b30 0abd
00000110: 762a 9cbc ec86 92bd e43f 4bbd ba05 1c3e
00000120: 2eb0 e0bd fe42 b6bc 0b45 3f3e 60b3 cdbd
00000130: 3f87 523d b59e 043e 2e40 babd 5e36 59be
00000140: 3ec2 82be 86bd b2bd 0bb3 8a3e b9a2 19be
00000150: 8624 ec3c a535 a23c 017d 313d 87e6 e13c
00000160: 7c95 be3d 857b dabe 486a 5b3c 7eb4 25bf
00000170: 0226 903d 4f45 293e a142 223e 2267 a93d
00000180: 0d45 34bf dba4 103d e994 493d 0341 16bd
00000190: b1a1 74bd d846 01be 47b3 d3be 119f 883d
000001a0: ee7e 5abd df1c 123e 487e 993e 2a7f 3bbe
000001b0: 96b3 99bd 0796 b93e b656 183e f387 9fbd
000001c0: b777 713e 4ba8 1dbe 0811 80bc f5c8 0dbd
000001d0: 478b d7bd 228d fbbc 3442 b73d 20d8 94be
000001e0: 60f7 51ba de86 20bd 2b56 263e b801 003e
000001f0: 2a83 93bd 1641 47bf a9b9 47be 91a5 683e
00000200: fb75 0fbe d8da 0c3e 31ea 29be 8b80 b83d
00000210: 5bdf 153b ae42 393e d6f4 883e b030 d93e
00000220: 30e2 233e 2e1f 253e 17fc 60be 1f5e 0a3e
00000230: 5a08 febd ff89 feb9 36e0 663e ffc8 1abe
00000240: d1dc 1ebe c974 ae3e f8c5 93be 2caf 183c
00000250: c83b 163e 18ba 283e a46a a13d b4cc 2d3e
00000260: 2449 663c 08b0 d63e 3dc4 a4bd 601a b73e
00000270: 6297 98be e617 953e 3924 963c f89d 733e
00000280: 2fbf 913e 1c9d 2abd 76d0 37bd 2b1a 0ebe
00000290: 0962 be3d 1a5a ec3d ed46 a0bd 3ca1 613e
000002a0: 2628 a23d a27e 0c3e 85c2 be3b d8a8 c7bd
000002b0: 371a ffbd 368c bb3e 04e1 51bd 55d4 bb3e
000002c0: e229 613e 35fe 533e 74f9 9a3c 03ef b53d
000002d0: 1fb1 893d fb74 a73c 0fef c33d cbbe 8c3d
000002e0: cbce 013d 93b9 dabd dd7b e4be 5c23 d5bc
000002f0: c2a2 b03d 0857 003d cdcf c13d 3993 953d
00000300: 748e dd3e c9e3 a43c a5b4 51be 9153 103e
00000310: 7041 45bd a637 873e a7d0 4e3e 42d3 d33e
00000320: a6ed 493e e55c 25be 1566 0bbe f130 26bd
00000330: 58ce 03be 9b58 0f3e 2b3e 0c3e 53d3 cdbd
00000340: f393 91be 7815 603e 612e 10be 9c41 823e
00000350: c7a7 1f3d d9bb 053d 7345 dfbd b1ed 183e
00000360: 28da 433e b7f9 2d3e b2a7 82be 0933 d33d
00000370: 7b09 67be 48fe 953d f4ca eebb 27d7 963e
00000380: 5d78 17be 332f ac3e a2ba 84bd f668 afbe
00000390: c610 e13e ec0d 3abe dddd 9bbd f30d 54be
000003a0: 28bf e5bd e571 583e 5ccb 10be f5b0 d0bd
000003b0: 4101 80bd cb63 e4be a3b8 6dbe 14c9 55bd
000003c0: 547e e63e 91b0 033f dfac 693e 80cb cabd
000003d0: 8947 08bf 9a0d 923c 23f8 52be 36cd 43be
000003e0: b1f5 443e 6f1d 30be ee72 ee3d d4c2 c43c
000003f0: 40f8 e33e a706 903d cc88 66bc d746 ad3b
-0.39858562 0.05686668 -0.21920575 -0.0637388 0.2981925 -0.06445784 0.09849099 0.06271429
-0.07981826 0.14748588 -0.35315433 0.2342636 0.15982693 -0.4250062 -0.14089933 0.10112791
-0.2116922 0.11214902 -0.01424918 -0.111796506 0.04220633 -0.0032719956 0.17925817 -0.1249715
-0.064262144 -0.06011401 0.17149012 -0.18777111 -0.032357328 -0.38487154 -0.5396382 -0.15651755
0.113704786 -0.015176881 0.2049508 0.044536542 0.118443646 -0.02377046 0.25034156 0.16988914
-0.0415371 -0.07834394 -0.12439516 0.18240622 0.080422 0.23886634 -0.064087465 0.020029629
0.015854646 0.14235221 0.040840965 0.17240481 0.15018801 0.16211586 -0.021738997 0.12713377
-0.0023543017 0.03331921 0.120988764 -0.16142233 0.023339033 0.13068324 0.040758137 0.44481805
0.13872941 -0.02076271 0.1284738 -0.03373764 -0.019063216 -0.071546406 -0.049621478 0.1523656
-0.109711036 -0.022248741 0.18678682 -0.10043979 0.051398512 0.12951167 -0.090942726 -0.21212146
-0.2553882 -0.08727555 0.27089724 -0.1500348 0.02882601 0.01980097 0.043332104 0.027575744
0.09305856 -0.42672363 0.013392039 -0.64728534 0.070384994 0.16530345 0.1584573 0.08271624
-0.70417863 0.03531347 0.049214277 -0.036683094 -0.059724513 -0.12624681 -0.41347715 0.066709645
-0.053343706 0.14268826 0.29979157 -0.18310228 -0.075049564 0.36247274 0.14876828 -0.07789602
0.23580824 -0.1539623 -0.015633121 -0.034615476 -0.10524612 -0.030706946 0.08948174 -0.2907114
-0.0008009579 -0.03919112 0.16243808 0.12500656 -0.07202752 -0.7783369 -0.19504417 0.22719409
-0.1400985 0.13755357 -0.16593243 0.090088926 0.0022868726 0.18091843 0.26749295 0.42419958
0.16004252 0.16125175 -0.21971165 0.13512467 -0.12403937 -0.0004854947 0.22546467 -0.15115736
-0.15513922 0.34073475 -0.28861976 0.009319108 0.14671242 0.16477239 0.07881668 0.1697262
0.014055524 0.41931176 -0.08045242 0.3576231 -0.29802996 0.29119796 0.01832782 0.23790729
0.28466174 -0.041653737 -0.04487654 -0.1387717 0.092960425 0.11540623 -0.07826028 0.22034162
0.07917814 0.13720182 0.0058215284 -0.09749001 -0.12456172 0.3663041 -0.051239982 0.36685434
0.21988633 0.20702441 0.018917777 0.088834785 0.06723236 0.020441523 0.09567081 0.06872328
0.031691354 -0.10679927 -0.4462575 -0.026017837 0.086247936 0.031333 0.09463463 0.07303471
0.43272746 0.020128148 -0.20479067 0.14094378 -0.04815811 0.26409644 0.20196782 0.41372114
0.19719562 -0.16148718 -0.1361316 -0.040574018 -0.12871683 0.13998644 0.1369559 -0.100500725
-0.2843319 0.2188319 -0.14080192 0.2544068 0.038978364 0.03264985 -0.10901918 0.14934422
0.19126189 0.1698979 -0.25518566 0.103124686 -0.2256221 0.07323891 -0.0072873775 0.29461023
-0.14792009 0.3362976 -0.0648091 -0.34259766 0.4395811 -0.18169373 -0.076106764 -0.20708446
-0.11218101 0.21137197 -0.14140075 -0.10190002 -0.06250239 -0.44607386 -0.23214965 -0.052193716
0.45018256 0.51441294 0.22819851 -0.09902096 -0.53234154 0.017828751 -0.20602469 -0.1912125
0.19234349 -0.17198728 0.11643015 0.024018683 0.44525337 0.07032519 -0.014070701 0.005287986

fc2.bias f4 [8]
00000000: b908 fb3e ddd1 563f 72cc 2d3f 2c5d e23e
00000010: 2e4a 3b3f 1eec d63e 1703 893f 5788 ffbd
0.49030092 0.83913976 0.67890084 0.4421171 0.73160064 0.41977018 1.0704068 -0.12477177

output.weight f4 [4, 8]
00000000: c1ca 0a3f a1c2 de3e 9978 af3e 1751 c93e
00000010: e59d bb3e f657 3b3e c5df bd3e 3067 30bf
00000020: f75a fe3e aa9f ca3e 432c be3e 0ea9 bf3e
00000030: 6dcc bf3e 45e3 5e3e 8ef8 bf3e 81d1 0fbf
00000040: 867d b53e 5230 c13d 4a4d 213f 4ee0 163f
00000050: 7eb0 0c3f 8df5 87bd ab63 f33e 4c47 c1be
00000060: f999 af3e 8e6f 8a3e b356 713e cdc3 f23e
00000070: 8fe1 4b3e 1c1e 0a3f 63f1 123f 08b5 94be
0.5421563 0.43507865 0.34271696 0.3931968 0.366439 0.18295273 0.37084785 -0.6890745
0.49678776 0.3957494 0.37143144 0.37433666 0.37460652 0.21766384 0.3749432 -0.5617905
0.3544733 0.094330445 0.6300856 0.5893601 0.54956806 -0.06638632 0.47536978 -0.37749708
0.3429716 0.27038234 0.2356823 0.4741501 0.19910263 0.53952193 0.57399577 -0.29044366

output.bias f4 [4]
00000000: d8ea f03e 4700 c53e 2387 e73e 1361 b33e
0.47054172 0.38476774 0.4522029 0.35035
